models/train_model.pth (torch, 16799 bytes, 4 tensors)

linear1.weight f4 [256, 11]
-0.00386867 0.18783937 -0.50367415 -0.18628804 -0.0035534545 -0.064110726 -0.22785139 -0.4720612
-0.14800715 -0.17182939 -0.038575962 -0.25840172 -0.09108072 0.2186061 -0.1283679 -0.09720613
-0.46228692 -0.021220056 -0.076100565 0.14109994 -0.33567458 -0.1006574 -0.5649365 -0.26652554
0.8345336 0.74293023 0.75369656 -0.50036895 -0.069135316 0.028774757 0.016954757 -1.2952025
-1.2710931 1.4298975 1.5711516 0.2738064 0.20155802 0.03623082 0.98577726 0.6822258
0.4630051 0.9461867 -2.786445 -2.6919236 0.22260518 0.05950072 0.095823586 -0.06456511
-0.033059686 -0.13524717 -0.23434795 -0.07515464 -0.2816042 -0.097145386 -0.25092307 -0.40646228
0.09931602 -0.2975358 -0.12578426 -0.07856436 -0.10395242 -0.3125539 -0.14143907 -0.38266012
-0.24267465 -0.21119538 -0.32902852 -0.087135725 -0.37116125 0.04397468 0.06669033 -0.20690489
0.042974528 0.077131994 -0.3102652 0.13339405 0.109084055 -0.26945508 -0.010777851 -0.119671665
-0.19119257 -0.12780516 -0.29244468 -0.016027464 -0.23064281 -0.18912941 0.1997795 0.14534332
-0.9985606 -0.22379999 0.38643315 0.5703703 -0.5020314 1.3262904 0.3739536 -1.6733457
-1.1044346 -0.70300305 0.30400825 -0.7036994 -0.12443977 0.27841818 -0.0447093 -0.38217965
-0.22776653 -0.6536226 -0.27331942 -0.5290273 -0.5242789 -0.11975206 -0.9468898 -0.88502795
-0.59147453 -0.6052091 -0.15114076 0.3330713 -0.5946322 -1.3587106 -0.4214948 -0.85958374
-0.8405612 -0.052890763 0.193091 -0.33230338 -0.13702443 -0.029027471 -0.43507102 -0.15902187
-0.14547792 -0.047685973 -0.27775422 -0.19816223 -0.009972844 -0.3061404 0.10412624 -0.03713477
-0.32881802 -0.18617317 -0.034836747 0.028439859 0.18465924 0.0045045437 -0.5570673 0.4513733
-1.5360162 -0.07844618 0.71846324 0.81996435 1.6508178 0.78205127 0.84669167 0.9995834
-1.5086275 -2.0090644 -0.111896195 0.31928122 -0.9207756 0.42940012 -0.03219735 0.6667598
-0.7825371 -0.65125316 -0.07399475 -1.2753619 -1.2241019 -0.52198315 -0.9539895 0.14472082
1.0017992 1.3291621 -0.23875119 -0.48945472 0.9924911 0.026062764 -1.4525557 -1.2832965
-0.13533393 0.100915976 -0.13265802 -0.13993885 -0.28487617 -0.29756635 -0.31410924 -0.3266859
-0.13862021 0.04849549 -0.04847951 -0.13516088 0.36663392 -0.43773067 -0.099872515 -0.19333574
0.060385 -0.11022715 -0.095426016 -0.036308922 -0.04428139 -0.12891567 0.48438403 -0.57883
-0.25460777 -0.15922095 -0.10705636 -0.3496052 -0.34457392 -0.009979998 -0.035984244 -0.25208598
-0.10205169 -0.3382261 -0.4542861 0.32077685 -0.15023519 -0.11054122 -0.011620797 -0.2284952
-0.16303103 -0.11822194 -0.5993659 -0.28297493 -1.1304756 1.2503799 0.014837866 1.5315709
1.0370007 2.255577 1.7094964 0.36672515 1.1788268 -2.664271 -2.704475 0.18136506
-0.7610602 -0.013501329 0.90947485 0.036451 0.22377372 -0.53230715 -1.1203437 -0.8707522
-0.058978673 -0.80183774 0.5724752 0.35288796 0.44569057 -0.43029508 -0.08408337 -1.7972766
-0.8704099 -0.100711 0.16054696 -0.13341656 0.14028256 0.29033968 -0.3492756 -0.6626362
00000000: 8389 7dbb f758 403e caf0 00bf 4bc2 3ebe
00000010: 13e1 68bb 7c4c 83bd e051 69be 01b2 f1be
00000020: 308f 17be 0bf4 2fbe d401 1ebd 3b4d 84be
00000030: 8788 babd 47da 5f3e e072 03be 0214 c7bd
00000040: dfb0 ecbe afd5 adbc 9dda 9bbd 817c 103e
00000050: 8add abbe 7825 cebd ae9f 10bf 0976 88be
00000060: fea3 553f ad30 3e3f 42f2 403f 2e18 00bf
00000070: d196 8dbd 0ab9 eb3c b4e4 8a3c 32c9 a5bf
00000080: 2eb3 a2bf e206 b73f 7f1b c93f 5a30 8c3e
00000090: 3a65 4e3e c566 143d e65b 7c3f 5aa6 2e3f
000000a0: 010f ed3e 4b39 723f 1d55 32c0 7a48 2cc0
000000b0: 9df2 633e 07b7 733d 283f c43d b63a 84bd
000000c0: 9869 07bd 3c7e 0abe e9f8 6fbe adea 99bd
000000d0: 6d2e 90be 29f4 c6bd fd78 80be d31b d0be
000000e0: 3366 cb3d 9d56 98be 97cd 00be 5ae6 a0bd
000000f0: 02e5 d4bd 1107 a0be 67d5 10be 07ec c3be
00000100: b47f 78be 9a43 58be 6d76 a8be 3774 b2bd
00000110: d908 bebe cb1e 343d f194 883d e0de 53be
00000120: 0f06 303d 61f7 9d3d 15db 9ebe 7398 083e
00000130: 7667 df3d 04f6 89be 9595 30bc 6b16 f5bd
00000140: fcc7 43be 5bdf 02be 4fbb 95be 074c 83bc
00000150: a12d 6cbe 24ab 41be ff92 4c3e e1d4 143e
00000160: aba1 7fbf d32b 65be 91da c53e ca03 123f
00000170: 2185 00bf e2c3 a93f d976 bf3e 3130 d6bf
00000180: 1d5e 8dbf 02f8 33bf f8a6 9b3e a525 34bf
00000190: 47da febd d48c 8e3e 1921 37bd 0dad c3be
000001a0: a13b 69be d053 27bf 86f0 8bbe 556e 07bf
000001b0: 2437 06bf 9140 f5bd 5f67 72bf 3191 62bf
000001c0: e06a 17bf fcee 1abf a5c4 1abe 5288 aa3e
000001d0: d139 18bf 3bea adbf 2bce d7be ae0d 5cbf
000001e0: 052f 57bf fca3 58bd a6b9 453e ab23 aabe
000001f0: 2250 0cbe 05cb edbc a1c1 debe a1d6 22be
00000200: 2af8 14be 5e52 43bd cd35 8ebe 0aeb 4abe
00000210: 2465 23bc 6fbe 9cbe 2340 d53d a11a 18bd
00000220: d65a a8be 2ea4 3ebe fab0 0ebd b5fa e83c
00000230: 5017 3d3e da9a 933b f69b 0ebf 671a e73e
00000240: 2e9c c4bf 64a8 a0bd 35ed 373f 2fe9 513f
00000250: ff4d d33f 8334 483f c9c0 583f b3e4 7f3f
00000260: b51a c1bf 8394 00c0 d529 e5bd d478 a33e
00000270: f3b7 6bbf 55da db3e 5ee1 03bd c5b0 2a3f
00000280: 5a54 48bf 87b8 26bf 8f8a 97bd 0f3f a3bf
00000290: 5faf 9cbf b0a0 05bf a838 74bf b231 143e
000002a0: f53a 803f fc21 aa3f 317b 74be cf99 fabe
000002b0: e613 7e3f 9481 d53c 58ed b9bf 0f43 a4bf
000002c0: fa94 0abe 09ad ce3d 81d7 07be 214c 0fbe
000002d0: 4adb 91be 9e5a 98be edd2 a0be 6043 a7be
000002e0: 75f2 0dbe 35a3 463d 7392 46bd 9d67 0abe
000002f0: 71b7 bb3e 3c1e e0be f689 ccbd cef9 45be
00000300: 4356 773d c6be e1bd b76e c3bd aab8 14bd
00000310: 6760 35bd 7802 04be 2f01 f83e 342e 14bf
00000320: f35b 82be d10a 23be 5d40 dbbd 74ff b2be
00000330: fe6b b0be 2583 23bc 3764 13bd 6a11 81be
00000340: 7a00 d1bd f92b adbe 3098 e8be dd3c a43e
00000350: 41d7 19be 6f63 e2bd 2865 3ebc a5fa 69be
00000360: 9bf1 26be 581e f2bd 0b70 19bf 17e2 90be
00000370: 6db3 90bf 730c a03f 851a 733c 840a c43f
00000380: 70bc 843f 605b 1040 c7d0 da3f 66c3 bb3e
00000390: cce3 963f 6b83 2ac0 1e16 2dc0 c3b7 393e
000003a0: d7d4 42bf ae34 5dbc 58d3 683f a54d 153d
000003b0: f024 653e 4845 08bf 6c67 8fbf 9ee9 5ebf
000003c0: 9f93 71bd 3d45 4dbf bc8d 123f bbad b43e
000003d0: 8e31 e43e a34f dcbe e733 acbd 290d e6bf
000003e0: 2fd3 5ebf 9241 cebd 6c66 243e 5a9e 08be
000003f0: 3ba6 0f3e 67a7 943e 40d4 b2be 87a2 29bf

linear1.bias f4 [256]
-0.19867896 -0.35733664 -0.33422193 -0.5013716 -0.2552692 -0.008651998 -0.31837425 -0.2951678
-0.68384486 -0.14029454 0.051089704 -0.16432746 -0.28127885 -1.220892 0.27956745 -0.91057134
-0.019287333 -0.3932235 -0.41534033 -0.19318023 -1.7402894 -0.97533494 -1.0913414 -1.1085063
-0.15413544 -1.6193147 -0.065860994 -0.88177717 -0.08505653 -0.7587587 -0.36334747 -0.37943035
-0.2132898 -0.28219974 -0.4573621 0.021275168 -0.4468028 -0.930934 -0.41053498 -1.3211372
-0.25487375 0.001149535 -0.28875628 -1.201745 -0.23821437 -0.25842738 -0.7433471 -0.27957857
-0.33209595 -1.0959796 -1.5276606 -0.25727215 -0.89521635 -0.6892713 -0.88836944 -0.72744787
-0.14811108 -0.20807844 -0.15907225 0.14240503 -0.12570547 -0.27514175 -0.4276653 -0.31353435
-1.1984863 -0.33097485 -0.38241887 -0.3146103 -0.12541112 -0.20563607 -0.18007387 0.45926473
-0.37131792 -0.38762134 -1.1382277 -0.94152343 -0.10926569 0.15476774 -0.69124234 -0.15447412
-0.15475845 -1.7433035 -0.6818566 -0.3362592 3.4666684 -0.5412617 -0.15502 -0.348669
-1.1110165 -0.35366115 0.06112556 -0.1432734 -0.3897031 0.25949103 -0.57637364 -0.3094523
-1.3365256 -1.2890465 -0.033192966 -0.96019906 -0.28368983 -0.12842941 -0.28021213 -0.9097873
0.0036714165 -0.35284615 -0.5503721 -2.543762 -0.30839023 -0.1077156 -0.24042551 -0.33216688
-0.09578599 -0.7579719 -0.42554638 -0.02375262 -0.16295275 -0.0958031 -0.29199693 -0.33593622
-0.82682586 -0.29499307 -0.020071182 0.030567305 -0.10378777 -0.19826256 -2.3251257 -0.34641907
-0.112504266 -0.23032758 -1.026863 -0.4727423 -0.20962515 -0.026870785 -0.60505384 -1.7733935
-0.742608 -0.5028325 -0.34620485 -1.5476652 0.0048333644 -0.17461616 -0.31921014 -0.41867137
-1.1485984 -0.21565257 -1.0642434 -0.29903463 -0.62058777 -1.04853 -0.28326005 -0.29000786
-0.81495625 -0.6060015 -0.6350008 -1.2024122 -1.479545 -0.06737706 -0.34350017 -0.2796457
-0.44023407 -0.34358677 -0.3367444 -0.22456606 -0.10199643 -0.2184599 -1.8475645 -0.28821948
-0.17451726 -0.48192737 0.16676416 -0.44274032 -0.49836066 -0.28203955 -0.43773884 -0.5161314
-0.33736432 -2.494768 -0.40762419 -2.027197 -0.24622837 -0.42723793 -0.17040229 0.00075901026
-0.1369469 -0.6588157 -0.323228 -0.9212552 -0.20789556 -0.3334235 -0.42083287 -0.691913
-1.8706119 -0.23772588 -0.3454455 -1.0011638 -0.22593644 -0.4099371 -0.5590907 -1.264281
-0.17597881 -0.19271572 -1.7062339 0.09194037 -0.45527902 -0.2792754 -0.29724458 -0.6975263
-0.9427392 -0.37257764 -0.24628502 -1.9863727 -0.76366776 -1.323569 -0.22016615 -0.22460833
0.048886012 -0.50273407 -0.55723876 -1.2164773 -0.63818973 -0.12402858 -0.32731983 -1.8444735
-0.17189874 -0.2390951 -0.081930764 -0.18741706 -0.64656097 -0.16480145 -1.477102 -0.13566786
-0.43398446 -0.17930593 -0.75690675 -0.8825073 -0.1789413 -0.6610405 -0.37373433 0.5272187
-0.3063257 -0.24879733 -0.29223385 -0.7558254 -0.2623747 -0.36056584 -0.051757503 -0.38640466
-0.2521961 -0.09096489 -0.34887013 -0.37878188 -0.22591105 -0.7245842 -0.24835026 -0.51736933
00000000: 7f72 4bbe d4f4 b6be 231f abbe e459 00bf
00000010: a5b2 82be 1cc1 0dbc f301 a3be 3c20 97be
00000020: 7510 2fbf 5fa9 0fbe 7043 513d 7545 28be
00000030: c803 90be 3046 9cbf 7723 8f3e 341b 69bf
00000040: 7800 9ebc 9754 c9be 7da7 d4be 0ad1 45be
00000050: cec1 debf 8daf 79bf 13b1 8bbf 89e3 8dbf
00000060: aed5 1dbe b445 cfbf 21e2 86bd 26bc 61bf
00000070: 1e32 aebd 033e 42bf ae08 babe b244 c2be
00000080: a468 5abe 7c7c 90be 5d2b eabe 4349 ae3c
00000090: 56c3 e4be b151 6ebf a431 d2be 061b a9bf
000000a0: d07e 82be feab 963a ddd7 93be c8d2 99bf
000000b0: 78ee 73be 9850 84be ff4b 3ebf ec24 8fbe
000000c0: 7b08 aabe 0f49 8cbf 628a c3bf 2db9 83be
000000d0: e62c 65bf 1574 30bf 2e6c 63bf 063a 3abf
000000e0: 6eaa 17be 8412 55be d6e3 22be a0d2 113e
000000f0: efb8 00be 61df 8cbe f2f6 dabe 9387 a0be
00000100: 0068 99bf 8975 a9be 68cc c3be 9a14 a1be
00000110: c66b 00be 4392 52be 4965 38be bf24 eb3e
00000120: 621d bebe 4e76 c6be 72b1 91bf ae07 71bf
00000130: b1c6 dfbd 6f7b 1e3e 42f5 30bf 772e 1ebe
00000140: 0079 1ebe 9224 dfbf 278e 2ebf 2a2a acbe
00000150: e5dd 5d40 2090 0abf 90bd 1ebe be84 b2be
00000160: ca35 8ebf 1313 b5be cc5e 7a3d 43b6 12be
00000170: 2a87 c7be 02dc 843e 398d 13bf 8870 9ebe
00000180: 4513 abbf 7aff a4bf 59f5 07bd 9bcf 75bf
00000190: cb3f 91be 0083 03be f777 8fbe d2e7 68bf
000001a0: 269c 703b 40a8 b4be 30e5 0cbf ffcc 22c0
000001b0: 53e5 9dbe ff99 dcbd 1b32 76be c711 aabe
000001c0: 722b c4bd 720a 42bf 37e1 d9be db94 c2bc
000001d0: 16dd 26be 6a34 c4bd 9f80 95be d5ff abbe
000001e0: dcaa 53bf 5509 97be 526c a4bc 4968 fa3c
000001f0: af8e d4bd 5705 4bbe dcce 14c0 d75d b1be
00000200: a368 e6bd feda 6bbe 3f70 83bf 470b f2be
00000210: faa7 56be 1f20 dcbc cfe4 1abf 8ffe e2bf
00000220: 8f1b 3ebf a1b9 00bf c341 b1be e519 c6bf
00000230: 3361 9e3b 94ce 32be 836f a3be 185c d6be
00000240: 4605 93bf 07d4 5cbe 2139 88bf 111b 99be
00000250: d7de 1ebf 3b36 86bf 7607 91be e97b 94be
00000260: f9a0 50bf ea22 1bbf 6a8f 22bf a5e8 99bf
00000270: bb61 bdbf fcfc 89bd 41df afbe b92d 8fbe
00000280: 5c66 e1be 9bea afbe c369 acbe a5f4 65be
00000290: 81e3 d0bd f4b3 5fbe fe7c ecbf 8191 93be
000002a0: a7b4 32be 2fbf f6be 39c4 2a3e dcae e2be
000002b0: 2129 ffbe 7d67 90be 4e1f e0be 3021 04bf
000002c0: 04bb acbe 47aa 1fc0 1eb4 d0be 98bd 01c0
000002d0: 4a23 7cbe eebe dabe f07d 2ebe 51f8 463a
000002e0: cf3b 0cbe 25a8 28bf 247e a5be 61d7 6bbf
000002f0: 93e2 54be 7cb6 aabe 6877 d7be 3621 31bf
00000300: 3670 efbf 6a6e 73be 3cde b0be 2326 80bf
00000310: e25b 67be 47e3 d1be 9120 0fbf f6d3 a1bf
00000320: ca33 34be 4557 45be df65 dabf 3c4b bc3d
00000330: 551a e9be 2ffd 8ebe 7130 98be 1591 32bf
00000340: 5b57 71bf 7fc2 bebe 2432 7cbe 7641 febf
00000350: bb7f 43bf b66a a9bf 3c73 61be baff 65be
00000360: b33c 483d 2eb3 00bf 33a7 0ebf 87b5 9bbf
00000370: 6760 23bf b202 febd 7796 a7be b517 ecbf
00000380: 3906 30be 59d5 74be 51cb a7bd 42ea 3fbe
00000390: 0585 25bf b6c1 28be ae11 bdbf 84ec 0abe
000003a0: 3633 debe f99b 37be a4c4 41bf 00ec 61bf
000003b0: 633c 37be f339 29bf 1b5a bfbe cef7 063f
000003c0: b9d6 9cbe bac4 7ebe ad9f 95be c67d 41bf
000003d0: fa55 86be 169c b8be adff 53bd d5d6 c5be
000003e0: d91f 81be cd4b babd 1b9f b2be b3ef c1be
000003f0: 3a55 67be 5a7e 39bf 884f 7ebe 5172 04bf

linear2.weight f4 [3, 256]
-0.0018556362 0.0056774197 -0.13132827 -0.11459471 0.008668368 0.00087566214 0.000713197 0.025258534
-0.13153215 -0.00437178 -0.2447275 0.011943866 -0.0022795976 -0.2590764 -0.011357532 -0.23435389
-0.040281944 0.0034957645 0.1808841 -0.014068717 -0.10970909 -0.3110259 -0.34774637 0.02596946
0.019411676 -0.092515044 -0.005415717 -0.25358123 -0.07264113 -0.36719295 0.05407195 -0.046906706
-0.73071676 -0.032189023 -0.038170904 0.1593273 -0.011890912 -0.34551257 -0.016893279 -0.11007094
0.026956119 0.017793344 0.004855827 -0.24303007 -0.013033318 -0.018860646 -0.009235437 0.00029979018
0.0059551294 -0.21138039 -0.06941081 -0.0051343935 -0.112225845 -0.031247001 -0.11713377 -0.021413462
-0.023347436 0.027745925 -0.0010890298 -0.59473497 -0.022917451 -0.2538798 -0.0039110514 -0.007809162
-0.0612302 0.015509257 -0.027848931 -0.025781287 0.008162451 -0.055820026 0.030554192 0.025866348
-0.009082433 -0.015779462 -0.027042447 -0.34582615 0.028010895 -0.0029227322 0.06256421 0.04605386
-0.005783004 -0.1096949 -0.019439116 -0.0035307405 1.5938084 -0.019469671 -0.028665327 0.052949935
0.14744663 -0.049321502 0.012211822 0.0455926 0.24474163 -0.19569318 -0.01880622 0.009038402
-0.06972444 0.009276794 -0.05824866 -0.107505515 -0.102752484 0.005763855 -0.03284736 -0.114596575
0.0060638357 0.0011078772 -0.18505765 -0.46420673 -0.044948693 -0.027159177 -0.049085945 -0.029552098
-0.021054106 -0.18575098 0.09213043 0.0051837983 0.091492645 0.003107082 -0.028485147 0.006724365
-0.4731425 0.026248725 0.002041986 0.016426291 -0.026164247 -0.34795907 -0.3786768 -0.018183932
0.0041976795 -0.114874825 -0.12905261 0.020182036 0.026671188 0.021895463 -0.118671514 -0.12716068
0.2153096 -0.124326974 -0.03926098 -0.024628852 0.025390863 -0.013410855 0.0511551 0.023813587
-0.4501865 -0.033322822 0.051882796 -0.04884976 0.04631557 0.104691505 -0.01303152 -0.15844434
0.22218746 0.016397318 0.088265695 -0.14106146 -0.011736154 -0.00017702051 0.028179435 -0.013206228
-0.07284626 -0.0561655 -0.19927154 -0.0033721053 -0.016581373 -0.028434187 -0.006461867 -0.08536963
0.018666495 -0.024231687 0.0053848457 -0.1319335 0.008848233 -0.058109883 0.007655007 0.1330119
0.11771713 0.0019204175 0.01825599 -0.086444385 -0.07516529 -0.17533259 0.006404534 -0.00827713
-0.012644466 0.029231599 0.0051309355 -0.25201887 -0.16274759 -0.35867903 -0.15179773 0.03157515
-0.12083096 0.018698229 -0.0048442828 -0.08303008 0.024658583 -0.021081783 -0.26270047 -0.116879314
0.019941062 -0.037089072 -0.0015903518 -0.000505781 -0.07692348 0.052158337 -0.25122043 -0.4966873
-0.0013932256 -0.0034046096 -0.22622736 -0.08231932 0.14951779 -0.04894638 0.10439163 -0.41054437
-0.1087031 -0.7446931 -0.0020958825 0.09214234 -0.10133109 0.005300926 -0.06234214 -0.11969072
-0.030606069 -0.1256312 0.019735241 0.08237362 -0.16519733 -0.0022375605 -0.20434462 0.09374632
-0.0016207858 -0.020746728 -0.32082155 -0.1016838 0.01137959 -0.0976195 -0.00540999 -0.0028542136
0.004220757 -0.065197974 0.034027398 0.098559655 -0.2275259 0.06226339 -0.029217396 0.10893033
-0.024182295 -0.005028869 -0.0035267416 0.024257006 0.0052065384 -0.0011310334 0.04270121 0.04370174
00000000: d238 f3ba a609 ba3b eb7a 06be a2b0 eabd
00000010: c505 0e3c b18c 653a d7f5 3a3a fcea ce3c
00000020: 5db0 06be 2641 8fbb d999 7abe 34b0 433c
00000030: 4d65 15bb a9a5 84be f114 3abc 77fa 6fbe
00000040: aefe 24bd 3219 653b ae39 393e 7a80 66bc
00000050: 29af e0bd c93e 9fbe d00b b2be e8bd d43c
00000060: 3c05 9f3c 8778 bdbd 5476 b1bb 66d5 81be
00000070: dfc4 94bd b700 bcbe 8d7a 5d3d 3f21 40bd
00000080: 4110 3bbf a3d8 03bd 1859 1cbd b226 233e
00000090: 1ad2 42bc 06e7 b0be c663 8abc df6c e1bd
000000a0: 14d3 dc3c 59c3 913c a11d 9f3b e0dc 78be
000000b0: b389 55bc a481 9abc 3b50 17bc 282d 9d39
000000c0: 3f23 c33b 1a74 58be 4127 8ebd 6a3e a8bb
000000d0: aad6 e5bd b6f9 ffbc d4e3 efbd 496b afbc
000000e0: 1f43 bfbc 6c4b e33c c7bd 8eba 8d40 18bf
000000f0: 61bd bbbc 88fc 81be 4728 80bb 00e4 ffbb
00000100: 85cc 7abd 8a1a 7e3c 7123 e4bc 4733 d3bc
00000110: cdbb 053c 8aa3 64bd c94c fa3c aae5 d33c
00000120: 7cce 14bc ee43 81bc 1f88 ddbc 2010 b1be
00000130: 1b77 e53c 4f8b 3fbb aa21 803d f9a2 3c3d
00000140: 5b7f bdbb b8a7 e0bd c83e 9fbc ff63 67bb
00000150: ea01 cc3f dc7e 9fbc 8cd3 eabc 08e2 583d
00000160: 40fc 163e 5805 4abd 1814 483c 4ebf 3a3d
00000170: 8d9d 7a3e cb63 48be 800f 9abc ce15 143c
00000180: b0cb 8ebd b2fd 173c 2696 6ebd da2b dcbd
00000190: e56f d2bd b8de bc3b f48a 06bd 9cb1 eabd
000001a0: 24b3 c63b 3136 913a c17f 3dbe 81ac edbe
000001b0: 1f1c 38bd ec7c debc 580e 49bd 3e17 f2bc
000001c0: a979 acbc 8135 3ebe e1ae bc3d dadc a93b
000001d0: 7f60 bb3d 30a0 4b3b af59 e9bc 1058 dc3b
000001e0: bc3f f2be 9107 d73c d7d2 053b 6e90 863c
000001f0: 6756 d6bc b127 b2be ede1 c1be 78f6 94bc
00000200: b08c 893b 7e43 ebbd 5e26 04be cc54 a53c
00000210: 897d da3c 1d5e b33c 0d0a f3bd 6936 02be
00000220: 1f7a 5c3e 249f febd 1fd0 20bd 72c2 c9bc
00000230: 8000 d03c 34b9 5bbc 0388 513d b614 c33c
00000240: d87e e6be 837d 08bd 0e83 543d b016 48bd
00000250: 65b5 3d3d 8068 d63d 2882 55bc 3c3f 22be
00000260: 1c85 633e ab53 863c a5c4 b43d 6a72 10be
00000270: ff48 40bc 959e 39b9 8fd8 e63c ef5e 58bc
00000280: 6c30 95bd cc0d 66bd d70d 4cbe 8afe 5cbb
00000290: a9d5 87bc d0ee e8bc 12be d3bb 46d6 aebd
000002a0: 7aea 983c 8881 c6bc 5c73 b03b 9319 07be
000002b0: 2ef8 103c a104 6ebd dad6 fa3b 4634 083e
000002c0: ae15 f13d 85b6 fb3a 968d 953c c109 b1bd
000002d0: 42f0 99bd 638a 33be 20dd d13b cd9c 07bc
000002e0: bc2a 4fbc 1b77 ef3c 6821 a83b 9e08 81be
000002f0: 4ea7 26be c7a4 b7be dd70 1bbe f254 013d
00000300: 3976 f7bd 072d 993c cabc 9ebb ad0b aabd
00000310: cc00 ca3c b4b3 acbc ad80 86be 6c5e efbd
00000320: 705b a33c b6ea 17bd 5a73 d0ba 6396 04ba
00000330: 0f8a 9dbd fba3 553d f79f 80be cc4d febe
00000340: e59c b6ba df1f 5fbb 25a8 67be 0897 a8bd
00000350: 311b 193e 007c 48bd 47cb d53d df32 d2be
00000360: bb9f debd 35a4 3ebf 135b 09bb 20b5 bc3d
00000370: ad86 cfbd 64b3 ad3b 795a 7fbd 6920 f5bd
00000380: 94b9 fabc 77a5 00be cdab a13c 80b3 a83d
00000390: 7d29 29be 09a4 12bb b73f 51be 12fe bf3d
000003a0: 8c70 d4ba 0bf5 a9bc b942 a4be 993f d0bd
000003b0: 7671 3a3c bbec c7bd 4946 b1bb c20d 3bbb
000003c0: 474e 8a3b 8486 85bd 5060 0b3d a5d9 c93d
000003d0: 8dfc 68be e507 7f3d 5259 efbc dd16 df3d
000003e0: f319 c6bc 36c9 a4bb e820 67bb a1b6 c63c
000003f0: 9c9b aa3b 2f3f 94ba 77e7 2e3d 9900 333d

linear2.bias f4 [3]
1.6983 0.20338474 0.121098004
00000000: e561 d93f 1744 503e 3b02 f83d
